processor.pth (torch, 11095 bytes, 6 tensors)

l1.weight f4 [8, 133]
-0.27111882 0.7039622 -0.39515018 0.523836 -0.98830664 -0.7653802 0.020822855 -0.8741494
-0.25761783 0.64734393 1.15113 0.6513811 -0.038433235 0.4827337 0.8164802 -0.779908
0.19943975 0.58650845 1.8717421 0.41130215 0.48730075 -1.1930066 0.5217194 0.42400032
0.7252098 1.2810985 1.6746126 0.34930453 0.5683892 0.47500193 -1.2275552 0.53142476
0.5949599 -0.0037764327 -0.33987436 -0.8927449 0.23754427 -0.46535018 0.5395163 -1.0187066
0.90181667 -0.755295 -0.7274767 -0.5885731 -0.7838124 -0.6780851 0.5563452 -0.8339098
-0.025578253 0.97294253 -0.8184872 -1.3993645 1.2788562 0.05290306 -0.0372612 0.5585895
0.044978354 -0.36009586 1.1638575 -0.47991443 0.09019391 0.3303288 -0.7653716 0.049835768
0.6800942 0.8161033 0.36754727 1.3935072 0.25826344 -0.3314255 0.24032117 1.1666512
1.090534 -0.7294782 -0.01557994 -0.6076323 0.9575377 -0.08453735 1.3468283 -1.017567
0.2753396 -0.5870837 0.27342495 0.80313635 0.97980803 0.5937768 0.6286023 -0.6405763
0.9009392 0.021729022 0.4098062 1.361477 1.8119369 0.052083995 0.89121664 0.33778313
1.4927337 0.6578697 0.9292029 0.6511804 0.74345654 0.71169466 1.3601623 -0.71023226
0.29150096 -0.447505 -1.3938494 -1.0195271 -1.0264314 -0.045989696 0.017624304 -1.1638672
-0.9099338 0.041254908 -0.72411746 0.935831 0.6507996 0.72834873 1.3658465 -0.73317695
-0.73785925 0.64097947 0.59701633 0.06962206 -0.867972 0.73252654 0.8496671 -1.0188259
-0.5220743 -0.02609 -0.81369215 0.7616626 0.6459387 1.1857632 0.97968876 -0.1986974
-0.992482 1.0501765 -0.53698236 -0.3665328 -0.43245098 1.1395323 0.3689733 0.118522786
0.32414165 0.5699204 0.039423056 -0.49899033 -0.9457707 -0.0013842828 1.1018709 0.69492334
-0.83654207 0.49685135 -0.5945145 -0.9910993 -0.766383 1.3147967 -0.0021398196 -1.1401714
-0.5185129 0.018294506 1.2422693 2.2265906 1.0142831 0.32578582 -0.35816768 -0.07555927
-1.3616252 0.7532116 -0.5866483 0.016010389 1.0753826 0.59823877 -0.0065867165 0.04781373
0.75885224 -0.04128904 0.045724172 -1.0734727 -0.035133958 0.4244407 1.277175 0.47398612
0.14814141 0.26805052 0.8382806 0.3647531 -0.31974357 -0.47465676 -0.5510983 0.6070314
1.4799949 -0.306656 0.5612272 -0.2909921 -0.887479 0.33703375 -0.8209058 0.19602567
0.502998 -1.2111812 0.7903042 1.2704394 -0.26227233 0.5185254 0.8499557 0.46881333
-1.188418 0.24661995 0.53429675 0.72435206 1.0307212 0.53024906 0.647733 0.5086975
-0.45740247 1.2414482 0.25910524 0.6980472 1.2420803 0.77174354 -0.44089407 -0.4201333
-0.80720073 0.11503605 -0.41595334 0.49581587 0.08421802 -0.8435187 -0.1395014 0.44146657
-0.13013582 0.8741917 -0.059942674 0.49078578 0.69867015 0.5450944 -0.61593634 1.3677009
1.0340095 0.9248697 -0.035234135 0.29935804 -0.87242913 -0.17501563 0.2502757 0.39008573
0.52007157 0.71082026 0.8878637 1.0230104 -0.53922045 0.0066606617 0.69478697 0.51969725
00000000: 16d0 8abe de36 343f 2051 cabe 1e1a 063f
00000010: aa01 7dbf f5ef 43bf b194 aa3c 41c8 5fbf
00000020: 7ce6 83be 55b8 253f 3a58 933f e9c0 263f
00000030: 2b6c 1dbd df28 f73e d904 513f 0da8 47bf
00000040: ef39 4c3e 6b25 163f 3f95 ef3f 3296 d23e
00000050: 7c7f f93e 71b4 98bf 678f 053f 9216 d93e
00000060: 59a7 393f 09fb a33f b559 d63f 0bd8 b23e
00000070: f481 113f 7433 f33e 8720 9dbf 740b 083f
00000080: 4b4f 183f 077e 77bb 0304 aebe ee8a 64bf
00000090: ce3e 733e 6142 eebe be1d 0a3f fa64 82bf
000000a0: 75dd 663f 035b 41bf ea3b 3abf baac 16bf
000000b0: eea7 48bf fc96 2dbf a46c 0e3f 1d7b 55bf
000000c0: 7c89 d1bc c312 793f 6188 51bf 601e b3bf
000000d0: 8fb1 a33f e1b0 583d 339f 18bd b9ff 0e3f
000000e0: 393b 383d 7c5e b8be 48f9 943f 58b7 f5be
000000f0: 96b7 b83d db20 a93e 65ef 43bf 9720 4c3d
00000100: a71a 2e3f 25ec 503f 282f bc3e 725e b23f
00000110: 1b3b 843e 9ab0 a9be c116 763e d454 953f
00000120: 9e96 8b3f 15bf 3abf 0143 7fbc ca8d 1bbf
00000130: 3121 753f eb21 adbd df64 ac3f a33f 82bf
00000140: 50f9 8c3e 1e4b 16bf 5bfe 8b3e 589a 4d3f
00000150: b3d4 7a3f c201 183f 15ec 203f cffc 23bf
00000160: f4a3 663f 1001 b23c 1ed2 d13e e144 ae3f
00000170: 8ced e73f 0756 553d c626 643f e9f1 ac3e
00000180: e611 bf3f 266a 283f 3ee0 6d3f c2b3 263f
00000190: 2b53 3e3f 9f31 363f cc19 ae3f c8d1 35bf
000001a0: 9d3f 953e 601f e5be a869 b2bf dd7f 82bf
000001b0: 1b62 83bf b15f 3cbd d860 903c 9af9 94bf
000001c0: 6cf1 68bf e8fa 283d c35f 39bf 9f92 6f3f
000001d0: cd9a 263f 1075 3a3f 0fd4 ae3f 7cb1 3bbf
000001e0: 58e4 3cbf 3b17 243f 10d6 183f 0396 8e3d
000001f0: 6a33 5ebf dc86 3b3f c883 593f e368 82bf
00000200: a9a6 05bf b2ba d5bc 214e 50bf 52fc 423f
00000210: 3d5c 253f 17c7 973f e2cc 7a3f 5577 4bbe
00000220: 4d13 7ebf 2f6c 863f ad77 09bf 30aa bbbe
00000230: 376a ddbe 32dc 913f 12ea bc3e 13bc f23d
00000240: e5f5 a53e 4ee6 113f 127a 213d a97b ffbe
00000250: 071e 72bf d370 b5ba 1b0a 8d3f 7fe6 313f
00000260: 9f27 56bf 4d63 fe3e 1a32 18bf afb8 7dbf
00000270: ad31 44bf 424b a83f 373c 0cbb 23f1 91bf
00000280: 43bd 04bf 5cde 953c ae02 9f3f 7680 0e40
00000290: 07d4 813f 66cd a63e c161 b7be d2be 9abd
000002a0: bc49 aebf 7ad2 403f 952e 16bf 3828 833c
000002b0: 23a6 893f 2d26 193f 62d5 d7bb 54d8 433d
000002c0: 2444 423f b21e 29bd 4549 3b3d 8e67 89bf
000002d0: a0e8 0fbd 4b50 d93e 787a a33f 4fae f23e
000002e0: 62b2 173e eb3d 893e 8f99 563f ebc0 ba3e
000002f0: 6eb5 a3be 3606 f3be c714 0dbf 6966 1b3f
00000300: 7970 bd3f 0402 9dbe 96ac 0f3f ebfc 94be
00000310: d331 63bf b08f ac3e e226 52bf f4ba 483e
00000320: 7ac4 003f fc07 9bbf 6051 4a3f c29d a23f
00000330: 8f48 86be 15be 043f b296 593f 4d08 f03e
00000340: 151e 98bf f189 7c3e acc7 083f 236f 393f
00000350: acee 833f 67be 073f d4d1 253f 003a 023f
00000360: a830 eabe c6e7 9e3f 71a9 843e 39b3 323f
00000370: 7dfc 9e3f fc90 453f debc e1be b61b d7be
00000380: b5a4 4ebf 0598 eb3d d6f7 d4be 94db fd3e
00000390: 7f7a ac3d d7f0 57bf 74d9 0ebe e807 e23e
000003a0: 5342 05be 07cb 5f3f 7386 75bd 4648 fb3e
000003b0: 0cdc 323f 4e8b 0b3f 01ae 1dbf d310 af3f
000003c0: 6c5a 843f 43c4 6c3f ab51 10bd 7545 993e
000003d0: 8457 5fbf 4c37 33be 2324 803e 51b9 c73e
000003e0: 6923 053f 51f8 353f 094b 633f 01f2 823f
000003f0: 5a0a 0abf ae41 da3b 8fdd 313f e10a 053f

l1.bias f4 [8]
1.0155705 0.94834477 1.2291496 1.1416982 1.0982317 1.1285948 0.84948134 0.977238
00000000: 37fe 813f b9c6 723f c654 9d3f 2b23 923f
00000010: db92 8c3f cb75 903f 9c77 593f 452c 7a3f

l2.weight f4 [8, 8]
0.14579959 -0.8990624 1.6243026 0.6908406 -1.4670851 2.0164201 -1.296474 2.5212052
0.025517562 -0.07411837 -0.3005622 -0.06257937 0.042633682 -0.11852941 -0.3728819 0.076798275
1.4042811 2.2323172 0.91617125 1.9817035 -1.2048484 -2.280161 -1.2521113 1.9857658
-0.5445333 -0.9823576 0.7367965 2.5058143 1.9219826 2.6953168 -1.3582423 -0.04133288
-0.12603372 3.2161748 1.8652034 1.0563126 0.53550315 2.145367 0.67111313 -2.4387865
2.848848 0.028009713 1.4209362 -2.2580976 2.622703 -0.67648405 -0.553538 0.60133225
-1.2450308 1.6298978 1.7223738 -1.05221 0.19069092 0.5558221 0.6263274 1.3844651
-0.54152435 -0.42888367 -0.2582433 1.022741 0.8618998 -1.210725 2.900691 1.2747437
00000000: 7d4c 153e f428 66bf 26e9 cf3f eeda 303f
00000010: 72c9 bbbf 070d 0140 dcf2 a5bf 6d5b 2140
00000020: 350a d13c 5fcb 97bd 4ae3 99be 9d29 80bd
00000030: a8a0 2e3d 8cbf f2bd 60ea bebe 6a48 9d3d
00000040: 7cbf b33f 49de 0e40 338a 6a3f 76a8 fd3f
00000050: 7938 9abf 28ee 11c0 2f45 a0bf 932d fe3f
00000060: 8966 0bbf ca7b 7bbf b29e 3c3f 435f 2040
00000070: 8703 f63f 1280 2c40 e2da adbf aa4c 29bd
00000080: fc0e 01be cfd5 4d40 fcbe ee3f 4035 873f
00000090: bc16 093f b14d 0940 12ce 2b3f 1415 1cc0
000000a0: 8753 3640 a074 e53c 3de1 b53f ac84 10c0
000000b0: 5eda 2740 0f2e 2dbf abb4 0dbf e9f0 193f
000000c0: 2b5d 9fbf 7ea0 d03f bf76 dc3f d1ae 86bf
000000d0: 7b44 433e 5b4a 0e3f fe56 203f 2736 b13f
000000e0: 57a1 0abf a496 dbbe 7738 84be 2de9 823f
000000f0: 77a5 5c3f 09f9 9abf eca4 3940 cd2a a33f

l2.bias f4 [8]
0.90395 -0.20876911 0.3880345 0.49541187 0.42538813 1.0874277 -0.28058216 0.5902269
00000000: 4469 673f 92c7 55be 75ac c63e a0a6 fd3e
00000010: 79cc d93e d530 8b3f 77a8 8fbe 1c19 173f

l3.weight f4 [60, 8]
-1.3133155 0.28149384 -0.7680488 -1.7651864 -0.1802083 -0.35824242 0.74830985 0.28273284
0.8102126 0.25946182 -3.3729506 -0.016312554 -0.37208694 -0.09950472 0.31084394 -0.36429563
-1.5164381 -0.13564937 -2.4531155 0.40200248 0.5296284 0.66388893 -1.2644083 -3.4478536
0.37142432 -0.12877806 0.3948007 0.020000834 -2.12375 0.068706684 -0.36541513 -1.4644641
-1.1980991 0.2941045 -1.2488747 0.13792929 0.55746543 -2.539754 -0.9070043 0.5512111
1.054401 0.29120916 -0.37892964 0.095469065 -0.6097584 0.32951835 -3.332226 -3.4134552
-2.8173563 0.11216717 0.4713139 0.09651178 -0.019899232 -0.113703616 -0.61983067 -0.55605775
-0.26877648 0.03378498 0.51746655 -0.65295964 0.082805686 -0.06430441 -0.83795565 -1.2086109
-0.88976604 -0.27277848 -0.7310638 -1.0856754 -1.5765413 -1.6916349 0.38561276 0.880985
-1.26531 -0.28579992 -2.1532898 -1.0698884 -1.3870032 0.47597352 -0.04816994 0.31456557
0.41407794 0.09780493 -0.99674314 0.14256176 -0.47715986 0.40302125 0.11491016 -3.0951989
-2.5855513 -0.010020952 0.2797309 -0.0879878 0.2574774 0.72273713 -2.62053 -3.5963109
-1.7478254 0.23972866 -2.7793753 0.6702202 -0.19809194 0.6618973 -2.1502497 -1.0135758
-0.17792842 0.31273744 -0.7608843 -0.40471047 -0.79500747 0.57733834 -0.16946246 -0.68201977
0.38048494 -0.38082507 0.3814875 -2.1081705 -2.2537148 -0.113325246 0.1693267 -0.54586685
-0.5388085 -0.09808702 0.2628438 -1.337454 -0.5616277 0.12569475 0.7848253 -1.0562452
0.10476275 -0.00401591 0.69081664 -0.09204485 -0.08857205 -1.8242596 0.032069806 -0.86448324
-1.0393811 -0.27951708 -0.23518248 -0.5747342 0.5794389 0.30193245 0.24598624 -2.4715164
-0.048073865 0.32187286 -2.7956583 0.30620515 -0.061796766 0.50133437 0.16758765 -1.834048
0.5961495 -0.0931362 -0.68361896 -0.6072743 -0.21106634 -0.5210527 0.73413885 -0.81110126
-0.272675 0.22509822 -0.2755144 0.6057671 -1.1663052 -0.15369381 -0.25299913 -0.4623795
0.93306875 -0.2660869 0.68432236 0.55262536 -1.4966671 -1.8737457 -2.3756177 -1.0103233
-1.8771362 0.13746546 -0.74018997 -0.6434748 0.5189485 0.8389171 -2.9071283 -0.869889
0.19942519 0.2839638 -3.1467006 0.74920386 0.7937143 -0.91810155 0.19813389 -1.9034109
-1.8752993 0.082646884 0.7374283 -1.9700333 0.10387764 0.5714454 -1.4391593 -2.1507542
0.62112725 0.00045944937 -0.25030017 0.8200983 0.21908566 -1.3622028 -2.333788 -1.477291
-1.6679908 -0.1805438 -2.6294894 0.6398909 0.7106849 -2.897073 0.68119305 -0.25088435
-0.4236309 0.031656306 0.13470294 0.27112168 -0.12267037 0.38157746 -3.3627207 -1.6372709
0.049492337 0.3116267 -0.3900823 -0.1962994 -1.2915133 -2.2023666 0.5886716 0.3008242
-0.66947347 -0.3158201 0.6493515 -1.7993051 0.32238317 -0.20585023 0.079772286 -3.6578574
-1.4206738 -0.28519014 0.5490357 -1.8283547 0.24170364 -2.7879066 -1.2402934 0.55872065
0.28401628 0.03725637 0.028095705 0.5086463 -0.82513964 -2.4880786 -2.4698544 0.086536825
00000000: b91a a8bf f61f 903e d99e 44bf a1f1 e1bf
00000010: 8688 38be 8d6b b7be 3c91 3f3f 5cc2 903e
00000020: 186a 4f3f 2ed8 843e 6cde 57c0 e8a1 85bc
00000030: 2e82 bebe 21c9 cbbd f026 9f3e f584 babe
00000040: a51a c2bf abe7 0abe d8ff 1cc0 45d3 cd3e
00000050: ba95 073f a0f4 293f 22d8 a1bf a2a9 5cc0
00000060: 542b be3e 65de 03be 5123 ca3e cad8 a33c
00000070: 85eb 07c0 17b6 8c3d b117 bbbe 8f73 bbbf
00000080: 505b 99bf dd94 963e 20db 9fbf 563d 0d3e
00000090: 0eb6 0e3f 548b 22c0 6f31 68bf 2c1c 0d3f
000000a0: 9df6 863f 5e19 953e 1103 c2be 4985 c33d
000000b0: 2019 1cbf a1b6 a83e 3143 55c0 0d76 5ac0
000000c0: 914f 34c0 e7b7 e53d 0e50 f13e f8a7 c53d
000000d0: b703 a3bc 71dd e8bd 39ad 1ebf cd59 0ebf
000000e0: 129d 89be 1f62 0a3d b078 043f 5d28 27bf
000000f0: 0796 a93d 08b2 83bd 4384 56bf c3b3 9abf
00000100: b5c7 63bf 9fa9 8bbe ff26 3bbf 69f7 8abf
00000110: 1bcc c9bf 7e87 d8bf 096f c53e 3c88 613f
00000120: aef5 a1bf 5e54 92be 80cf 09c0 1af2 88bf
00000130: 5289 b1bf cdb2 f33e d84d 45bd bd0e a13e
00000140: 0602 d43e f34d c83d 8f2a 7fbf b6fb 113e
00000150: 4c4e f4be cd58 ce3e 0556 eb3d bd17 46c0
00000160: ac79 25c0 eb2e 24bc e338 8f3e f332 b4bd
00000170: 14d4 833e 4d05 393f c3b6 27c0 f529 66c0
00000180: beb8 dfbf 6e7b 753e 49e1 31c0 8d93 2b3f
00000190: 9dd8 4abe 1a72 293f b19d 09c0 dabc 81bf
000001a0: de32 36be 1f1f a03e 50c9 42bf 3636 cfbe
000001b0: 9c85 4bbf 72cc 133f 9187 2dbe d998 2ebf
000001c0: ecce c23e 81fb c2be 5452 c33e 44ec 06c0
000001d0: dd3c 10c0 1117 e8bd fa63 2d3e eebd 0bbf
000001e0: 5bef 09bf d9e1 c8bd 7693 863e b131 abbf
000001f0: d5c6 0fbf 20b6 003e 50ea 483f 0b33 87bf
00000200: da8d d63d e597 83bb 5cd9 303f 0382 bcbd
00000210: 4365 b5bd 5781 e9bf a15b 033d c64e 5dbf
00000220: 710a 85bf dd1c 8fbe add3 70be c821 13bf
00000230: 1c56 143f e496 9a3e d1e3 7b3e 532d 1ec0
00000240: 1ae9 44bd 85cc a43e 11ec 32c0 ecc6 9c3e
00000250: 9b1e 7dbd 7357 003f 199c 2b3e 16c2 eabf
00000260: 419d 183f 31be bebd a701 2fbf 5476 1bbf
00000270: c621 58be b663 05bf 86f0 3b3f 55a4 4fbf
00000280: 0f9c 8bbe 2680 663e 3910 8dbe 8d13 1b3f
00000290: 7d49 95bf e961 1dbe 1a89 81be 01bd ecbe
000002a0: 98dd 6e3f 8b3c 88be c02f 2f3f db78 0d3f
000002b0: ca92 bfbf e6d6 efbf 1f0a 18c0 4652 81bf
000002c0: 0046 f0bf bfc3 0c3e 177d 3dbf c4ba 24bf
000002d0: cfd9 043f 45c3 563f 640e 3ac0 0cb1 5ebf
000002e0: 1e36 4c3e b463 913e 8b63 49c0 d3cb 3f3f
000002f0: dc30 4b3f b408 6bbf 9ce3 4a3e f8a2 f3bf
00000300: cf09 f0bf c542 a93d 1ac8 3c3f 0d2a fcbf
00000310: cdbd d43d 3f4a 123f 5f36 b8bf f5a5 09c0
00000320: 3202 1f3f 40e2 f039 5827 80be f6f1 513f
00000330: fe57 603e a95c aebf c85c 15c0 df17 bdbf
00000340: b980 d5bf 79e0 38be 8e49 28c0 e4cf 233f
00000350: 72ef 353f a569 39c0 ab62 2e3f ea73 80be
00000360: 26e6 d8be 0baa 013d 91ef 093e 76d0 8a3e
00000370: 9a3a fbbd 1f5e c33e d136 57c0 1892 d1bf
00000380: 7ab8 4a3d 898d 9f3e deb8 c7be b602 49be
00000390: 4f50 a5bf 93f3 0cc0 2fb3 163f a105 9a3e
000003a0: 9d62 2bbf 2cb3 a1be e63b 263f a14f e6bf
000003b0: 680f a53e 67ca 52be a75f a33d 561a 6ac0
000003c0: a4d8 b5bf 7104 92be 9b8d 0c3f 8707 eabf
000003d0: 2981 773e 106d 32c0 efc1 9ebf 5108 0f3f
000003e0: 956a 913e 239a 183d f728 e63c a536 023f
000003f0: 5a3c 53bf ae3c 1fc0 1812 1ec0 383a b13d

l3.bias f4 [60]
0.21785198 0.18680166 -0.0704467 -0.045560613 -0.06514004 0.55864257 -0.36048776 -0.076482795
0.3445935 0.21122529 -0.10374122 -0.092337616 0.30976665 -0.13406657 -0.16837093 -0.57931143
-1.055459 -0.63354445 -0.4068118 -1.1405791 -0.79598916 0.7094396 0.6612666 0.626559
0.34242272 0.4780417 -0.111643605 -0.43489075 -0.8283069 0.100115575 0.62500286 -0.122750394
0.116302475 0.26514283 0.071803994 -0.26286194 -0.20978278 0.2465193 -0.09000642 0.8377722
-0.2483854 0.32652223 -0.1288573 0.5147991 0.3689127 0.41871879 -0.17535824 0.34362713
-0.034315582 0.0680203 -0.049683917 -0.09359176 0.117933646 0.032273617 -0.08301784 0.16642979
-0.26333266 -0.27376172 0.3469496 0.011163253
00000000: 9714 5f3e ef48 3f3e 5c46 90bd c49d 3abd
00000010: 2468 85bd 3303 0f3f da91 b8be 03a3 9cbd
00000020: 8f6e b03e 714b 583e 4776 d4bd 811b bdbd
00000030: bc99 9e3e bf48 09be 6e69 2cbe c14d 14bf
00000040: 4819 87bf f82f 22bf a349 d0be 7ffe 91bf
00000050: f2c5 4bbf d59d 353f c548 293f 2c66 203f
00000060: 0852 af3e e2c1 f43e 67a5 e4bd 00aa debe
00000070: ec0b 54bf 6509 cd3d 3000 203f 8f64 fbbd
00000080: fe2f ee3d cdc0 873e f90d 933d d795 86be
00000090: 4cd1 56be 8e6f 7c3e 4955 b8bd 3d78 563f
000000a0: be58 7ebe ec2d a73e 2bf3 03be e0c9 033f
000000b0: 20e2 bc3e 4f62 d63e 1c91 33be e5ef af3e
000000c0: 7f8e 0cbd 3a4e 8b3d 5d81 4bbd 09ad bfbd
000000d0: 3287 f13d 5731 043d 4205 aabd 926c 2a3e
000000e0: 8ad3 86be 7f2a 8cbe 61a3 b13e 14e6 363c
